model/model.pth (torch, 16787 bytes, 4 tensors)

linear1.weight f4 [256, 11]
00000000: 72a8 ad3e 9245 8b3e 5357 29bf 0d14 8fbe
00000010: 1f64 473e 6c8e 3abd 5061 77be 3cd9 253e
00000020: 6322 87be 446a b1bd 2409 2c3e e52a f23d
00000030: d20f dc3c 1115 f03e cd9c cfbe 66f0 80bb
00000040: ffa1 53be f9a0 5dbd 0402 613e e8ad bcbd
00000050: 4ad9 08bd 26e5 523e 1b71 cf3e fe61 d73e
00000060: d520 723e 0d45 09be f4f9 fdbd ca1d d73d
00000070: 998a 5abe d543 893e 28ae db3e 378a 943e
00000080: b0a3 973e fc20 ff3e 3d6c 8d3e 29cd 9f3e
00000090: 11b8 363e cfc6 513d 77d8 e33d 8a52 d0bc
000000a0: f937 d8bd 0a44 f7bd 9d6d b2be 10f8 c7bc
000000b0: 6d01 1bbf a684 883e df14 d5bb 5974 edbe
000000c0: 80cc c33c 5111 583e 347b 733e cce8 07bf
000000d0: 8ce4 82bd 2c09 4a3e 85dd 663e 0444 c1bd
000000e0: 5608 64be a5c8 dc3d 84bf 8c3d db9f 323e
000000f0: 0e21 07be de99 1fbe fc78 dc3b e87e 9ebd
00000100: b483 99bd 0060 54be 7cc3 cf3e 13e5 16bd
00000110: 08a8 f13e a37c 5a3c 1409 373d 5ccd dd3d
00000120: 0b20 27bd 1dd3 693e 8765 873e b4ee d23d
00000130: 74ab 223e 25bf d2be 3724 37be 7bc4 aa3e
00000140: c089 0d3e f7ba b3bd be84 f3be f4a3 883e
00000150: f4d2 873e 659c d0be c5e0 babd 6d60 a73e
00000160: 721c 8bbb c41b 583e 6be9 1e3e 8bf2 b3be
00000170: 5e5b e73d d4fc 55be b8b5 913e bb77 b93e
00000180: e623 01bf ea82 6039 1f28 fabe f036 673d
00000190: f09d 7cbd 8bdd ac3d b7cb 8ebe 9991 273d
000001a0: 344a b03e 43a9 07be 451f 86be 8263 983d
000001b0: 4305 efbe dd7a 923e b227 6dbd 3d0b a63c
000001c0: 6f44 3ebd b0af bc3e e28a c9be 09f2 ae3e
000001d0: 13ec 203d bd69 84be 3fab 1c3f a2d0 debd
000001e0: f431 1d3e 56a4 df3e fcbf 3f3e 8e01 c3bc
000001f0: 33a6 fdbc a151 8dbe 237a 3d3e 4768 2a3e
00000200: db9f 313e ca6e c83e 09d4 aebd 5439 b6bd
00000210: 4d96 00be bd74 e83e 9f05 883e 0a13 4abe
00000220: a95c e53c 072f 883b 4e7e 0cbd 81b2 b33e
00000230: 119b 573e 1270 1e3e 032a 7b3e 3753 70bd
00000240: 0973 17be 0508 38be 0047 7d3e 9ce6 a4be
00000250: 64d7 8cbe fb23 023f 90cb f0be 44cd 8cbd
00000260: 2bd8 87be a2eb d93e c4c8 083e 12b0 5dbd
00000270: 8351 edbe 87e2 e3be a9c0 833e ee96 353e
00000280: a325 373d 2260 f13e 2556 90be effe 33be
00000290: a84f 9fbc 58cb c8be 384a 233e ec1e cd3e
000002a0: a6be 88be bf10 303d 386b 173e 4b98 50be
000002b0: b629 1abe d0f2 483e b6f8 3b3e 9e2e a1be
000002c0: 638c af3e be2d dd3e 220a 423e 7fce a4bc
000002d0: 4a7f 8cbe 65e9 44be 06fa 803c 4d90 ccbd
000002e0: 0b8a ac3e f1e9 c03b c436 343d c1c3 603e
000002f0: 1c24 a63d b2da 473e 346b 8bbe 9294 ae3d
00000300: 1333 64be 54a9 77bd 65af 9c3e b458 c1be
00000310: e421 ac3d 3d2d e23d b4f6 c5bc c5bb a8be
00000320: ec1c 053f f4e0 c7be 6929 54be c0dc 78be
00000330: 380e 35be 52e7 51be 8499 c13d 6674 1f3e
00000340: dd44 4bbe 6cf5 a5be 67d4 0fbe 2db9 9dbe
00000350: 39b2 b33d fd72 31be 687f 1e3e 89a9 673e
00000360: e809 ccbe b51d 17bf f482 4f3e fd22 973d
00000370: a5ef 25bd b7c2 c33c 7f6c c4be 7936 ecbe
00000380: 8ca6 fe3e 7b46 e43c 0d29 193e ae59 2fbf
00000390: cdab 243e 8dec 433e 3e35 07bf 1642 d03e
000003a0: 4edd 123d 3716 59be 6dcb 9a3e 511a 02be
000003b0: d2ff edbd eaec 3b3b e91a 80be 3615 5d3e
000003c0: 58fb 743e 4b58 55be c117 a9bd 798b 03bf
000003d0: 9348 11be 129c c0be e89a 953e 9a89 e63d
000003e0: 5f16 0fbd fc69 003f 1911 78be 7041 bfbd
000003f0: 5f35 df3d 8b3a b5bd 66c8 d13e 6def cd3d
0.33917576 0.27201515 -0.6614887 -0.27944985 0.19471787 -0.04554598 -0.24158216 0.1619615
-0.26393422 -0.08662847 0.16800362 0.11824588 0.026863012 0.46891072 -0.40549317 -0.0039349077
-0.20667265 -0.054108594 0.21973425 -0.092128575 -0.033410348 0.20595226 0.4051598 0.4206695
0.23645337 -0.13405247 -0.124011904 0.10503729 -0.21341933 0.26809564 0.42906308 0.290117
0.2961707 0.49829853 0.27621642 0.31211212 0.17843653 0.05121499 0.11125272 -0.025429983
-0.10557551 -0.12073524 -0.34849253 -0.024410278 -0.6054905 0.26663703 -0.006502732 -0.4637783
0.023901224 0.21100356 0.23777467 -0.53089595 -0.06391248 0.19730061 0.2254544 -0.09436801
-0.22268805 0.107804574 0.06872466 0.17443793 -0.13196203 -0.1558604 0.0067282896 -0.07739049
-0.074958235 -0.20739746 0.4057883 -0.036839556 0.4719851 0.01333538 0.044686392 0.10830185
-0.040802043 0.2283444 0.26444647 0.10299435 0.15885717 -0.41161457 -0.17884909 0.33353028
0.13822079 -0.08775895 -0.47562212 0.26687586 0.26528132 -0.4074432 -0.09124903 0.32690755
-0.0042453343 0.21104342 0.1551873 -0.35145983 0.11296724 -0.20897228 0.28458953 0.3622416
-0.504454 0.00021411074 -0.48858735 0.056448877 -0.06167406 0.084406935 -0.27889797 0.040910337
0.34431612 -0.13248162 -0.26195732 0.074408546 -0.46683702 0.28609362 -0.057899185 0.02026903
-0.046451982 0.3685279 -0.39363772 0.34169033 0.039287638 -0.25861922 0.611988 -0.10879637
0.15351087 0.43680066 0.1872558 -0.023804452 -0.030963039 -0.2760134 0.18503623 0.16641341
0.17346136 0.39147025 -0.08536536 -0.08897653 -0.12557335 0.45401564 0.2656679 -0.19733825
0.027998285 0.0041559967 -0.03430014 0.35097125 0.21055247 0.15472439 0.24527745 -0.05867311
-0.14789976 -0.17971809 0.24734116 -0.3220719 -0.2750808 0.5083615 -0.47030306 -0.06875089
-0.2653211 0.42562586 0.13357836 -0.05412299 -0.4635125 -0.44508764 0.25732926 0.17733356
0.044713628 0.47143656 -0.28190723 -0.17577718 -0.019447163 -0.3921764 0.15946281 0.40062654
-0.26707953 0.04298472 0.14786994 -0.20370595 -0.15054974 0.19623876 0.18356594 -0.3148088
0.34286794 0.4319896 0.18949178 -0.020117996 -0.27440864 -0.19229658 0.01574422 -0.09988461
0.33699068 0.005887263 0.04399754 0.21949674 0.08112356 0.1951702 -0.27230227 0.08524431
-0.22285108 -0.06046422 0.30602565 -0.37762988 0.084049016 0.11043785 -0.024165489 -0.32955757
0.51997256 -0.39038813 -0.20718922 -0.2430296 -0.17681205 -0.20498398 0.09453109 0.15571746
-0.19850488 -0.32413805 -0.14045869 -0.3080534 0.08774228 -0.17329021 0.15478289 0.22623266
-0.39851308 -0.59029704 0.20264798 0.0737972 -0.040511746 0.023896558 -0.38364026 -0.4613531
0.4973644 0.027865639 0.14957066 -0.68496215 0.16081162 0.19133206 -0.52815616 0.4067542
0.035855584 -0.2119988 0.30233327 -0.12705351 -0.116210595 0.0028675147 -0.2502053 0.21590123
0.23924005 -0.20834462 -0.08256484 -0.51384693 -0.14187841 -0.37619072 0.29219747 0.11256714
-0.034933444 0.5016172 -0.24225272 -0.09338653 0.108988516 -0.08849057 0.40973204 0.100554325

linear1.bias f4 [256]
00000000: 70c2 53bd 732c 543d b2c6 35be 6689 73be
00000010: 0267 b73e b418 cdbe 92dd 4ebe 6a25 273e
00000020: 8321 5ebd 3dc9 d5bd 1618 65be cc06 1dbe
00000030: 920a 36be 0dd6 c4bd e79d 3fbd b787 33bc
00000040: 068f 88bc c583 72be 2144 28be 6f8d 133f
00000050: 7a83 f9bb 7f59 f1bd a2c8 f4bd a074 3ebe
00000060: 6ec3 5ebd ffaa 0f3e f6a3 d63e 29db 9ebe
00000070: 6447 0fbe 88b5 873d 63fd ebbd fa43 d13d
00000080: cc4b 17be ef73 b7be eec1 99bd de10 35bd
00000090: 1683 a6be adde 8bbd 5c98 983c 5cf6 33be
000000a0: 4609 4c3e c98c bd3c 8648 b4be 9105 85be
000000b0: 11d9 c9bd 8119 03be f335 923c 489b 113c
000000c0: 9535 813e 07c0 03be ca92 c9bd c2c8 1c3f
000000d0: a268 94be 791b cfbc 80d7 b03e c33a fc3d
000000e0: dca6 3dbe 9033 da3d 909a 89be 93a0 093d
000000f0: 35eb 2e3e e840 94be ed6d 17be 36b2 61be
00000100: b874 b43d 79a6 a7be 9e70 dbbe da1f 3ebe
00000110: 76f8 07bc 3bb3 abbe 2139 753e 0dc0 60bd
00000120: 171a 73bd b4cb 443e 2116 573d 3f7d 81be
00000130: 5b44 5ebb b1f1 1fbe 7daa 85bc 3705 9f3b
00000140: 7008 89be bf2d 753e 2922 a73e 6f07 713d
00000150: 8dd7 79be d9bb 333e 5d5a 95bd ee48 be3d
00000160: d543 253e 0043 c9bd 0b85 82be 3e0e 37be
00000170: ab66 bbbe 9e23 0c3e 54c6 213d afaf ccbc
00000180: 536c 91bd 8825 6f3b 58fe 323d 5b38 46be
00000190: 6e2f bc3e 64ce 5abe 330f 4d3e cc57 17bc
000001a0: 061f 59bd 4925 1ebd 65b3 02be 949b a4bd
000001b0: 682d 85be e7d1 1b3f 8a01 16be 4d57 d53d
000001c0: ad71 d4be 60ce 5f3e f84c a03e 3edc 1cbe
000001d0: 1e68 48be c447 debd dde1 a4bd 0924 c43e
000001e0: fd94 85be 2930 763e ef58 80be 8a43 49bd
000001f0: fada 35be 2134 263b 8ecc 083c cdd3 973e
00000200: 214b 513e b907 a6bd 3723 8dbe 8b8e 03bd
00000210: fb68 e9bd 3407 63be c20b 6ebd 7888 63be
00000220: e356 86be 2500 abbd 5f23 79be a340 86be
00000230: 3b0a 1cbe b351 afbe f281 603d 8985 4d3e
00000240: 7b37 dbb9 90de 20be a8d0 31be b1e0 46be
00000250: 8bfd 62be 83b1 a7bd 6a22 eebd 5b60 0ebe
00000260: b344 bfbe f7e2 7fbe 7c37 13be 9bf8 dd3e
00000270: fe6e 5a3e 0bc3 34be bb54 913e b8c9 4e3d
00000280: 6d0d d23d 598a 85be 63e8 c8be 4472 90be
00000290: 81e9 dfbc f932 05be 3f99 61be 2e55 28be
000002a0: c311 f1bd 01e3 813e 15f8 b6be 5391 883e
000002b0: 1306 e4bd d806 793e 55fa 6b3d dcb0 633e
000002c0: 79e4 d93d 997a 123f 6fc3 f13d 9665 d4bd
000002d0: abf2 cbbd 0063 8ebd 2fec 01bd 8c6f 8dbe
000002e0: 485b c4bc bc95 bebd 607b 243d 52d6 9ebe
000002f0: 0549 eebd 4d8d 913d 60c2 493e fa96 71be
00000300: 5443 c8bd dc09 70bd c8d7 adbe 5c1e 81bd
00000310: 4902 b0bd 352b 7d3e 25e9 be3d 30db b2be
00000320: 4b03 a33e dd47 c8be 428a 6abd eae2 01bd
00000330: 3046 8dbd fc71 1b3d 4008 523e bfc6 abbe
00000340: 9bc8 493e e7c5 3dbe 748a aebe 64f4 b4be
00000350: 8ce1 373a 879b a6be 5622 2dbd 19bd 2fbe
00000360: b881 44be 3b50 dabd 9f5a 43be aa66 b9bd
00000370: ded8 20be 8a09 393e 2266 fb3e aa42 07be
00000380: acde 58be 02a4 e3bd d018 e3bd 5ce2 9a3e
00000390: 0d65 9939 85d4 c6be f474 31be 8286 00bc
000003a0: 70ff 87bc 44d0 40be 7885 523e 1877 c13d
000003b0: 9cbd bf3e e164 88be 609d acbe 5d2c 90be
000003c0: 0cc7 b1bd f843 f9bd 3f5f 36be 8152 7e3e
000003d0: e0da 713e 4d7e 093f c182 633e 3e81 acbd
000003e0: ed86 a13e 2f61 dabd 41c3 19be 8117 12be
000003f0: e615 77be 4597 e53d 326d ee3d 00e6 7cbe
-0.051699102 0.051800203 -0.17751577 -0.23782882 0.35820776 -0.4005791 -0.2020171 0.16322866
-0.054231178 -0.10438774 -0.2237247 -0.15334624 -0.1777747 -0.096111394 -0.046781447 -0.01095765
-0.016669761 -0.23683079 -0.16432239 0.57637686 -0.00761455 -0.11784648 -0.1195233 -0.18599176
-0.054385595 0.14030074 0.41921967 -0.3102658 -0.13992077 0.06626421 -0.11522939 0.102180436
-0.14775008 -0.35830638 -0.07507692 -0.04420554 -0.32521886 -0.068295814 0.018627338 -0.17574447
0.19925413 0.02313842 -0.3521158 -0.2598081 -0.09855855 -0.12802698 0.01784799 0.00888712
0.25236192 -0.12866221 -0.09842451 0.6124383 -0.28986079 -0.025281655 0.34539413 0.123158954
-0.18520683 0.10654366 -0.26875734 0.0336004 0.17081912 -0.2895577 -0.14788027 -0.22040638
0.08811325 -0.32744196 -0.42859358 -0.18566838 -0.008298984 -0.3353518 0.23947574 -0.054870654
-0.059351053 0.19218332 0.05251134 -0.25290868 -0.0033915255 -0.15619542 -0.016316647 0.0048529166
-0.2676425 0.23943232 0.3264325 0.05884498 -0.24398632 0.17552127 -0.07292626 0.09291254
0.16139157 -0.09827232 -0.2549213 -0.17876527 -0.36601767 0.13685462 0.03949578 -0.024986116
-0.07100739 0.0036490876 0.043699592 -0.19357435 0.36754936 -0.21367794 0.2002533 -0.009237241
-0.053008102 -0.038609777 -0.12763746 -0.08037487 -0.26011205 0.6086716 -0.14649025 0.10417042
-0.41492978 0.2185607 0.31308722 -0.1531839 -0.19570968 -0.10853532 -0.080508925 0.38308743
-0.26090232 0.24041809 -0.2506785 -0.049136676 -0.17759314 0.002536066 0.008349551 0.2965378
0.20438816 -0.08106942 -0.2756593 -0.03211836 -0.113969766 -0.22170717 -0.058116682 -0.22220027
-0.26238164 -0.08349637 -0.24329899 -0.2622119 -0.15238278 -0.3424202 0.054811426 0.20070471
-0.0004181227 -0.15709901 -0.17364752 -0.1942165 -0.22167031 -0.081881545 -0.11627658 -0.13903944
-0.373571 -0.24988924 -0.14376634 0.43353733 0.21331403 -0.17652528 0.28384957 0.050485343
0.10256467 -0.26082113 -0.39239797 -0.28212178 -0.027333023 -0.13007726 -0.22031115 -0.16438743
-0.11770966 0.25368503 -0.35736147 0.26673374 -0.11133971 0.24319017 0.057611782 0.22235435
0.10639281 0.5721832 0.11804854 -0.103709385 -0.099583946 -0.069524765 -0.031719383 -0.27624166
-0.023969308 -0.09305903 0.040156722 -0.31022888 -0.11635021 0.07107029 0.19703054 -0.23592749
-0.09778467 -0.058603153 -0.3395369 -0.06304619 -0.08594186 0.24723513 0.093218125 -0.34932852
0.3183845 -0.39117327 -0.05726076 -0.031710543 -0.06898153 0.0379505 0.2051096 -0.3355007
0.19705431 -0.18532525 -0.34090006 -0.35342705 0.0007014505 -0.32540533 -0.042269073 -0.17161979
-0.19190109 -0.10659834 -0.19077538 -0.09052785 -0.15707728 0.18070045 0.4910136 -0.13209024
-0.21178693 -0.111152664 -0.11088717 0.30250823 0.00029257723 -0.38834015 -0.1732977 -0.007844569
-0.016601294 -0.18829447 0.20558727 0.094465435 0.37449348 -0.26639464 -0.33713818 -0.28158846
-0.08680543 -0.12171167 -0.17809771 0.2483616 0.2361865 0.53708345 0.22217847 -0.084230885
0.31548253 -0.106630675 -0.1501589 -0.14266779 -0.24129447 0.11210493 0.11641921 -0.24697113

linear2.weight f4 [3, 256]
00000000: d1b4 adbe 8717 e6bd 17f8 14be fd09 fdbd
00000010: 06af 8e3e e22f dc3b 8ebf 01be b869 943e
00000020: f2fa b5be 117c a4bd 1296 1ebf add3 b6be
00000030: 9a96 d4bd 11ae 9d3e 4526 11bf 146d e53d
00000040: c1ac bbbd 75a4 4bbe 32be 8ebd b012 de3e
00000050: bd68 843e 7cae 78be f5ed 11bf 1ca8 59bd
00000060: c9e3 14bd 4c6b 64be f8fe b93e 00f0 1ebb
00000070: 3f35 c1be 2d90 13bf b83b 99be ab06 8d3e
00000080: b240 23be ce5c 06bf 4a79 843e 30d3 4b3e
00000090: 4cca 383d 8a1e 883e d181 8e3d 7728 aebd
000000a0: b3ba 993e a492 753e b086 bebb 1c79 33be
000000b0: fc89 a1be 26dc 8fbd 4c9a 79be f515 56be
000000c0: 6ce2 cd3e f3ca 50be 03d0 bdbd b659 c13e
000000d0: d813 0bbe fbb8 b8bd b604 1e3e 08ce 843d
000000e0: c5f5 b0bb 4d27 9c3e 9705 f43d 30d4 33bd
000000f0: bcf8 e43d 5406 85be 48b9 ecbd 2b99 12be
00000100: a4c3 c3be 9917 dfbd c2a0 a63d dd8c bfbe
00000110: 8d23 debe 7d61 873b aa42 633e 79e1 b03e
00000120: 4068 a5bd e57e 903e 30ac debe 2cab ac3c
00000130: ffdb a93c 8e5b a3be 79e2 b0be 91d1 3ebe
00000140: a2b5 55bd 3c54 f43e a987 a83e ebfe dbbe
00000150: 06fa 4bbe d32a f2bd f4ef 43be 78df 1a3e
00000160: 27eb 073f 8c52 8abe bcdf 68be 1491 76be
00000170: 769a 3dbe d693 9e3e 37de 0e3e 10bf e8bd
00000180: 1c42 99be 8189 97bb 2593 3c3e 59e6 9ebe
00000190: f308 873e b141 19be 4e08 523e ce70 8dbd
000001a0: b294 e4be 749e 593e 47e0 b9be afde 94be
000001b0: c551 86be c891 013f 9619 febd db82 7dbe
000001c0: 7931 803d 80dd bb3e 2460 8b3e 1fc7 42be
000001d0: 78ba ca3c 7994 243e f0b1 e6be a566 f33e
000001e0: 3c73 943c 8c62 0a3f 6f7b 64be c9c0 84be
000001f0: 9691 cebe 9ac0 44be 6215 053f 5449 773e
00000200: f524 8c3e 854c 00bd 4582 acbe 54c1 58be
00000210: 1940 ae3d 7c68 a9bd b105 98be 21f0 e2bd
00000220: de77 1bbc 85ff 21bf 58be 7bbd 4cc3 87be
00000230: 4f99 633e f40b 2cbe f68c 613c f6e5 d93d
00000240: 802a a33e c0d9 0abf b2be 713d 7a25 a9be
00000250: d991 45bd 3173 a93e 2f9a 9a3e 6927 e4be
00000260: 9d21 20be 06db 1cbe c62f debe b65b 383e
00000270: 7f60 2e3e 6b48 1ebe 6fdd bf3d 19fb e23e
00000280: d519 5f3e fc55 cbbd 87fd 2cbd 680e 11bc
00000290: 6b5e fdbe 04ef 9a3c f563 f3be 2f5d e0bd
000002a0: 2f63 97be bb84 6b3e 1d79 d53d 2106 643e
000002b0: a7e3 2d3e 1917 353e f328 5d3d e62c b73e
000002c0: 708f 66bc 44c9 8d3e 3b34 9d3e d4fc 47bd
000002d0: c67e c9be 6d6f 07bf 0792 d7bd 194d 5ebe
000002e0: 4d16 493e 3418 ddbe c774 0ebe 9113 f5be
000002f0: 6c28 013e f748 24be dd8b c73e fb7d cdbe
00000300: cef0 d4be 68e6 e43d 64cc 86ba 3f13 12bd
00000310: fb24 eabe 3d2d a83e fe21 4c3d 64bd c8bc
00000320: cd6d 4c3e 2b8e babe fcd8 bbbd 7c3f 4cbe
00000330: 1507 dfbc 27aa 29be 62c3 483e 2a1d 6fbe
00000340: a14e 043f 0016 fcbd 9299 5cbe 5860 1dbe
00000350: 1b48 b7bd beba 993d b953 c2be a444 8fbe
00000360: 1293 ce3e dae7 6dbd 6bd9 32be 0edc adbd
00000370: cb31 86be 6981 babe 56c2 bc3e 2081 26be
00000380: 88ee 553d 7d13 79be f8de 9bbe 9b0d 1d3e
00000390: c9a2 f7bd 1f93 b8bd d980 babd 20dd c13e
000003a0: 88ed 1f3d 6471 ecbe 99ae f23d e570 c3bd
000003b0: b05f e23e 31eb d1be a4ac 1f3e 0a5e febe
000003c0: 95db e53b 632c 09bf 7282 ae3c 5a06 8e3e
000003d0: 2a14 113e a0f3 1a3f 9fa4 0d3e ceb8 63be
000003e0: b20a 6e3e d634 a33d 0abf f0bd fc3f c53d
000003f0: 4376 8fbd 09d5 47be 9d80 b53e 1f4d d9b8
-0.33927014 -0.11234956 -0.14547764 -0.12355421 0.27867907 0.0067195753 -0.12670729 0.28986907
-0.3554302 -0.08031476 -0.6194774 -0.3570837 -0.103802875 0.30796865 -0.5669902 0.112024456
-0.091638096 -0.19886954 -0.069698706 0.43373632 0.2586116 -0.2428531 -0.5700372 -0.053138837
-0.036350045 -0.22306556 0.36327338 -0.0024251938 -0.37735936 -0.5764187 -0.29928374 0.2754415
-0.15942648 -0.5248536 0.25873786 0.1990478 0.0451148 0.265858 0.06958354 -0.08503812
0.30025253 0.2398172 -0.005814396 -0.17526668 -0.31550586 -0.07024412 -0.24375266 -0.20906813
0.4021181 -0.20389919 -0.09268191 0.37763757 -0.13581789 -0.09019657 0.15431485 0.0648461
-0.0054003918 0.30498734 0.11915129 -0.04390353 0.11180255 -0.2598139 -0.11558777 -0.14316241
-0.382352 -0.10893173 0.08136131 -0.37412158 -0.43386498 0.0041314946 0.22193399 0.34547022
-0.08076525 0.28221813 -0.43490744 0.021077715 0.020734785 -0.31905788 -0.34547785 -0.1863463
-0.05217517 0.47720516 0.32916 -0.42967924 -0.19919595 -0.11824574 -0.19134504 0.15124309
0.5309319 -0.27016103 -0.22741598 -0.2407878 -0.18515953 0.30972165 0.13951956 -0.11364567
-0.2993325 -0.004624546 0.18415506 -0.31035116 0.26374015 -0.14966466 0.2051098 -0.069062814
-0.44644696 0.21251851 -0.36303923 -0.29076144 -0.2623426 0.5061307 -0.12407224 -0.24756949
0.06259436 0.3669243 0.27221787 -0.19021271 0.024747118 0.16072263 -0.4505763 0.4753925
0.018121354 0.5405662 -0.22312711 -0.25928333 -0.40345448 -0.19214097 0.5198575 0.24149066
0.27371946 -0.031322975 -0.33693138 -0.21167499 0.085083194 -0.08271882 -0.29691842 -0.11080957
-0.009489028 -0.63280517 -0.061460823 -0.26516187 0.22226451 -0.16801435 0.013766518 0.10639565
0.31868362 -0.5423851 0.05901975 -0.33036405 -0.048234794 0.33095697 0.30195758 -0.44561318
-0.15637822 -0.15317926 -0.43395823 0.18003735 0.17028998 -0.15457313 0.09368407 0.44332197
0.21787198 -0.099285096 -0.04223397 -0.008853532 -0.49486098 0.0189128 -0.475372 -0.10955273
-0.2956786 0.22999851 0.10423491 0.22267963 0.16981374 0.17684592 0.05399413 0.35776442
-0.014072284 0.27692616 0.3070391 -0.0488251 -0.39354533 -0.529044 -0.105258994 -0.21709098
0.19637413 -0.43182528 -0.13911735 -0.4786649 0.12613076 -0.16043459 0.38973895 -0.40135178
-0.4158997 0.11176759 -0.0010284302 -0.035662886 -0.4573134 0.32847014 0.049837105 -0.024504371
0.1996376 -0.3643659 -0.09172246 -0.19946092 -0.027225057 -0.16568814 0.19605783 -0.23350969
0.5168248 -0.12308884 -0.21542957 -0.15368783 -0.089493 0.07506321 -0.379545 -0.27982056
0.4034658 -0.05808244 -0.17465751 -0.08489238 -0.26209864 -0.36426857 0.36867017 -0.16260195
0.052229434 -0.2432384 -0.3044355 0.15337221 -0.12091596 -0.09012436 -0.09106607 0.37864017
0.039044887 -0.4618026 0.11849708 -0.09543017 0.4421363 -0.4099975 0.15593201 -0.4968112
0.0070147016 -0.53583354 0.021302436 0.2773922 0.14167848 0.6052799 0.13832329 -0.22238466
0.23246267 0.07969062 -0.11755188 0.09631345 -0.070049785 -0.1951486 0.35449687 -0.00010361731

linear2.bias f4 [3]
00000000: ec3d 6a3e 3f95 00bd 5aba 723d
0.22875184 -0.031392332 0.05925975
